projects/sprites (GANs)/models/v1_200epoch_gen.pt (torch, 555107 bytes, 14 tensors)

net.0.conv_trans2d.weight f4 [100, 64, 4, 4]
000000 c2 a8 29 3e 95 ed bf 3c a7 4e 61 be 0b bd 3f 3d
       0.16568282 0.023428718 -0.2200266 0.046811145
000010 9b 9b ee bd c6 a0 b0 bc 1a 4d 3c bd 8b b9 aa 3d
       -0.11650773 -0.021561038 -0.045971967 0.08336171
000020 f9 10 8a bd af 4d 37 be 96 5e 29 be 41 e4 b4 bb
       -0.067415185 -0.17900728 -0.16539988 -0.005520374
000030 5d 81 4a 3e 9b d4 6d 3d 68 9f 5a be 38 21 07 3d
       0.1977591 0.058064085 -0.21349871 0.032990664
000040 c2 6d 0a bd 5f 01 3f 3e 97 88 db 3d fd 44 10 bc
       -0.03379608 0.18652867 0.10719412 -0.008805511
000050 be 98 0f 3e ac 3b 05 be 3f 30 d0 be 6e 0c af bc
       0.1402311 -0.13011044 -0.4066181 -0.021368232
000060 9e 49 29 3e ad 31 1b be 7b 9c 29 3d 38 3f 78 be
       0.16531989 -0.15155669 0.041408997 -0.24242866
000070 fa 2e 51 3d d5 cf 46 3c 9f 26 38 3d 47 a5 e0 3d
       0.05107019 0.012134512 0.044958707 0.10969024
000080 63 da dd 3e 76 66 13 bd 45 19 12 bd 2a 04 6d be
       0.43330678 -0.035986386 -0.03566863 -0.2314612
000090 17 a5 76 3d e0 12 a4 bc 6a be 5a 3d 27 29 6f bd
       0.060216036 -0.020028532 0.05340425 -0.058388855
0000a0 84 e0 18 bd 08 7b 88 bc 95 a8 3f 3e ec b3 16 3d
       -0.03732349 -0.016660228 0.18716653 0.03679268
0000b0 7c 73 ea bc 48 88 c3 bd 24 5b e7 bd ed fc 60 3e
       -0.02861952 -0.09547478 -0.112966806 0.21971484
0000c0 c1 6d 9b 3d a1 ed 87 be 6d 93 89 3c 67 ac 17 bd
       0.07589293 -0.26548484 0.01679393 -0.03702965
0000d0 2e e8 6a 3c 7d 75 70 bb a4 82 14 3c 36 7d 85 be
       0.0143375825 -0.0036691122 0.00906435 -0.2607209
0000e0 a2 73 ed 3d 8e 2a fc bc 84 df 01 be c5 26 05 3b
       0.11594321 -0.03078201 -0.1268292 0.0020317298
0000f0 af 8d ed 3d 88 ff 95 3d f5 6a 01 be 8e 85 84 bc
       0.115992896 0.07324129 -0.12638457 -0.016176965
000100 67 c0 d2 bd a8 95 3d bd 4f e5 d1 bd 92 98 f7 bd
       -0.10290604 -0.0462853 -0.10248815 -0.12089647
000110 37 4a 87 bd c0 95 da bd 48 0d 45 bd a9 2d 03 be
       -0.06605952 -0.10673094 -0.04810837 -0.12810387
000120 88 23 0b bd 7f 91 99 bd d9 5e dd bc 0f 2c a3 3b
       -0.033969432 -0.07498454 -0.027022766 0.0049796174
000130 63 88 ca 3d 17 da 85 bd 09 62 cc bd a7 48 87 bd
       0.09889295 -0.06535738 -0.09979636 -0.06605654
000140 b8 e0 24 be a0 56 a0 bc 97 87 28 bc 0f 51 23 be
       -0.16101348 -0.019572556 -0.010286233 -0.1594889
000150 7a 40 bf bc 8c 1e b2 3d 8a 9a 8d 3d 30 01 b2 bd
       -0.023346175 0.086972326 0.069142416 -0.08691633
000160 5d 32 c6 be 41 10 6f 3c e3 15 df 3b 30 c3 55 be
       -0.387103 0.014591278 0.006808029 -0.2087524
000170 0a 31 11 3e f2 be 53 3d c7 35 ef 3d 70 23 b9 bd
       0.14178863 0.05169577 0.11680179 -0.09039962
000180 64 13 2a 3e a2 df fc bd 82 90 28 bd 4f 37 ce bc
       0.1660896 -0.12347342 -0.04115344 -0.025172858
000190 cc fc 20 3e eb ad 83 3d f1 bd 55 3e d8 b1 94 bd
       0.15721434 0.064296566 0.20873238 -0.072604835
0001a0 b8 0d 77 3e 1d 4c 0b 3e 20 98 28 bd 11 e6 d6 3c
       0.24126327 0.13603254 -0.041160703 0.026232751
0001b0 b3 61 35 3c 41 3e 04 3e 8b ae 56 3e 7a 34 be 3c
       0.011070657 0.12914373 0.2096502 0.023218382
0001c0 25 a5 a1 be 1e da 45 bd af a1 f6 3c bb b8 56 bd
       -0.31571308 -0.048303716 0.030106394 -0.052422266
0001d0 c4 ae 2b be 1a aa b5 bc 25 b9 77 3d bd e7 b2 3d
       -0.16765887 -0.022175837 0.060479302 0.08735607
0001e0 38 40 34 3d 6c 4e 6d 3d 2e fd e3 bb 0a 8f 00 be
       0.044006556 0.057936117 -0.0069576716 -0.12554565
0001f0 82 f0 7c be 00 d6 51 3a bd 1f 16 3d 47 17 07 bd
       -0.24701121 0.0008004606 0.03665136 -0.032981183
000200 0d 81 47 be 3f 6c 9e bb 40 90 29 3c d3 b4 22 3b
       -0.19482823 -0.0048346813 0.010349333 0.0024827018
000210 94 4c 72 3c 8e 7a 03 be 33 fe 6c 3d 52 14 71 3d
       0.014788765 -0.1283972 0.05785961 0.05885727
000220 b1 18 07 3b e7 c4 e6 bd 45 5e 67 3b b9 78 21 3e
       0.0020614082 -0.11268025 0.0035303992 0.15768708
000230 24 66 b8 bc 97 85 5b 3d 70 f7 f8 bd 50 7c 84 3e
       -0.022509642 0.053594198 -0.1215657 0.25876093
000240 94 23 e7 3c 6e c9 67 3e 64 6f 4e 3e dd df 71 bc
       0.028215207 0.22635433 0.2015968 -0.014762846
000250 97 66 7b bc d2 c7 40 bc 0f a9 e1 bd 2b c3 86 3c
       -0.015344284 -0.011766391 -0.110185735 0.016450485
000260 09 a2 93 3d 5b 82 71 bd 23 a8 61 be a5 3b 61 3e
       0.0720864 -0.058962207 -0.22036795 0.21995409
000270 51 24 c4 bd 3b f5 02 3d 41 93 fa 3e c7 ab ba 3d
       -0.09577239 0.03197215 0.4894047 0.09114795
000280 fa 15 17 3e a1 1d 0d 3d 13 0d 51 3d f3 93 05 be
       0.14754477 0.034452084 0.05103786 -0.1304472
000290 c1 cd 08 3e 19 b4 8d be 07 df 89 3d c1 78 aa 3b
       0.13359739 -0.27676466 0.06731992 0.0052023833
0002a0 80 46 42 3d c6 b7 19 be 14 2f b4 be b5 1e 01 be
       0.047430515 -0.1501151 -0.35192168 -0.1260937
0002b0 13 76 5f be 2c 1a 47 bd 43 31 93 be 23 4b 2b be
       -0.21822385 -0.048608944 -0.2874852 -0.16727881
0002c0 5c 9d e7 bc 75 be 94 bc 63 7d a8 3a 86 e1 be 3c
       -0.028273277 -0.018157223 0.0012854751 0.023300897
0002d0 24 8a 08 be 3b af d0 bd d1 da 59 bc 34 bd 54 3e
       -0.13333946 -0.101896726 -0.013296799 0.207753
0002e0 ae 84 3b bd fa c5 03 ba 54 a1 01 bd d4 8c 3b 3e
       -0.04578083 -0.0005026754 -0.031647995 0.1831544
0002f0 f7 41 5f bd db af 34 bc db 3c 85 38 81 b2 52 3e
       -0.05450627 -0.011028255 6.3532694e-05 0.20575906
000300 80 61 6e 3e ac 23 6a be 55 92 94 bd 5c 06 1f bd
       0.23279381 -0.2286517 -0.07254473 -0.038824424
000310 fa 0b 13 3e 86 70 4b 3d a3 24 85 3c 38 ed cc bc
       0.14360037 0.049667858 0.016252821 -0.025015458
000320 a3 fe 9b 3c 89 ca 02 bc 2a 3a cc bd 09 34 ce bd
       0.019042319 -0.007982858 -0.099720314 -0.10068519
000330 d4 b1 9c bc f7 8d d9 3b 67 a7 cc bc 05 7b d1 bd
       -0.019127764 0.006639238 -0.024982167 -0.10228542
000340 d6 ca 5c be 5b 41 d2 3d b1 66 80 bd c6 b8 58 be
       -0.21561751 0.10266372 -0.06269587 -0.21164235
000350 d3 51 5f 3b 64 19 3b 3d 06 4e 33 bd 89 56 65 3d
       0.003407587 0.04567851 -0.04377558 0.05599073
000360 cc 70 8e bd 83 bd e3 3b ee f2 d0 3c d5 c6 7e 3c
       -0.06955108 0.006950082 0.025506463 0.015550335
000370 bc 9b 7c bc 78 52 04 3e eb 22 95 be 1c b8 28 bd
       -0.015417989 0.12922084 -0.29128203 -0.041191205
000380 b2 9e f1 bd f3 f7 4d bd fb d5 92 3d 08 cd 53 bd
       -0.11797847 -0.05028529 0.0716972 -0.051709205
000390 33 1b d2 bd ca 89 aa bd df 45 64 bd c7 21 82 ba
       -0.10259094 -0.083270624 -0.055730697 -0.0009928279
0003a0 df 83 f3 3d ff 00 ce 3d 6e 9f 40 bd 0c 55 a3 3d
       0.11890387 0.10058784 -0.047027044 0.07975206
0003b0 84 9f 29 3e 5e 91 83 3c 80 ea 7c bc 0b e1 82 bd
       0.16564757 0.016060527 -0.0154367685 -0.0639058
0003c0 d5 45 91 3c e9 5a fd bc 32 d4 1d 3d 8c 2f 0a 3e
       0.017733494 -0.030927138 0.038532443 0.134947
0003d0 74 e1 13 bd 78 1a 8f 3c e4 c1 d7 bc fa 4b 96 bd
       -0.03610368 0.017468676 -0.026337571 -0.0733871
0003e0 64 f8 da 3b c1 18 50 bd e9 d8 2e be f9 29 4a bd
       0.0066824425 -0.050804857 -0.17074932 -0.049356434
0003f0 07 98 6c 3e 26 3a 66 3e 68 ee 80 bd 48 c4 01 bd
       0.23104869 0.2248312 -0.062954724 -0.03168133

net.0.conv_trans2d.bias f4 [64]
000000 a5 79 bc bd 69 41 e6 3c 50 00 fe bd f6 af 57 be
       -0.09202889 0.028107362 -0.12402403 -0.21063218
000010 c1 f1 bb 3c 81 9b 9e 3d 69 ac 0f 3e 6b 70 28 bd
       0.022942426 0.07744504 0.14030613 -0.041122835
000020 11 44 11 bc fd df 8a 3d 6d f5 73 bd 8a c3 9a bd
       -0.008866326 0.067810036 -0.05956023 -0.07556827
000030 50 ce 69 bd a6 f0 d6 3d 44 2f c9 3c d1 02 31 3d
       -0.05708152 0.10495119 0.02455867 0.043215577
000040 2e 04 d1 3b 06 28 b3 bd ee 4a 34 be ee 5c 4e 3d
       0.006378672 -0.08747868 -0.17606708 0.050381593
000050 94 f8 6f be a0 c4 83 bd 42 28 fc 3c a0 f8 4d bd
       -0.23434669 -0.064339876 0.030780915 -0.050285935
000060 30 25 14 bd 94 aa d1 3c 99 2f ff bc 10 c7 9d bd
       -0.036168277 0.025594033 -0.031150626 -0.07703984
000070 f6 13 93 be ec 34 92 bd 42 d0 41 be d6 1b 00 3e
       -0.28726166 -0.07139 -0.189271 0.12510619
000080 1a df 7f 3d 12 e0 6d 3d f8 ea 5e 3c f4 04 f0 bb
       0.062468626 0.05807502 0.013605826 -0.007324809
000090 f9 09 a3 3b 33 48 3a 3c 67 14 33 bd ae 39 a8 3c
       0.004975554 0.011369753 -0.04372063 0.020535316
0000a0 13 e5 a2 3c 91 76 bf bc 80 55 1a be 97 e0 19 3e
       0.019884622 -0.023371967 -0.15071678 0.1502708
0000b0 ec 60 0b 3e 9a b0 08 3e 30 51 05 3e eb 9f 83 bd
       0.13611192 0.13348618 0.13019252 -0.06426986
0000c0 6e d7 de 3d d9 1f c8 3c 48 3a 47 3a 2b 04 f9 3c
       0.10880934 0.024429249 0.0007599932 0.030397495
0000d0 0c 9f d6 bd 51 9b 00 bd 71 e7 05 be 4d 11 14 be
       -0.104795545 -0.03139812 -0.13076569 -0.14459725
0000e0 e3 6b ba bc 24 4d ed bc 3b 15 02 be ba e0 05 be
       -0.022756523 -0.028967448 -0.12703411 -0.13074008
0000f0 b2 b3 5b bd 26 b4 15 bd b2 4b e0 bb a6 44 fa bc
       -0.053638168 -0.036548756 -0.006844961 -0.030550312

net.0.batch_norm.weight f4 [64]
000000 88 32 94 3e 5d 69 4f 3e d0 60 d6 3e b6 42 31 3f
       0.28944802 0.20255037 0.41870737 0.6924242
000010 04 a3 50 3f f1 81 35 3e a3 9f 91 3e 98 79 fa 3e
       0.8149874 0.1772535 0.28442106 0.48920894
000020 67 00 22 3f 1b 74 fd 3d 27 55 2b 3f 47 e7 3b 3f
       0.63281864 0.12375661 0.6692681 0.73399776
000030 fb 64 17 3f a0 4d f4 3d 56 e5 1b 3e 07 1b 2c 3f
       0.5913846 0.11928868 0.15224203 0.6722874
000040 98 56 48 3f be bc 17 3f 46 20 49 3f fe be 7f 3d
       0.7825713 0.5927237 0.7856487 0.062438004
000050 0d 5e 27 3f 42 48 2c 3f f5 20 20 3f e7 fa 15 3f
       0.65377885 0.67297757 0.6255029 0.5858597
000060 52 cd ea 3d 3b 27 d1 3e f5 c2 10 3f 6b b5 a0 3e
       0.11464943 0.40850243 0.5654748 0.3138841
000070 7f c6 2d 3f 46 70 fa 3e e7 bb 3e 3f 47 c2 41 3f
       0.67881006 0.48913783 0.74505466 0.7568707
000080 df 2b 10 3f 15 96 75 3e d4 1b 19 3f 66 10 b8 3e
       0.5631694 0.23983033 0.5980809 0.3595001
000090 2d f7 dd 3d 7a 58 42 3f 8e eb 25 3f 58 9d 11 3f
       0.10838161 0.75916255 0.6481255 0.5688071
0000a0 dc 0d 62 3c c0 3f e6 3e d9 d2 7e 3d fd 21 de 3e
       0.01379725 0.44970512 0.0622128 0.43385306
0000b0 4e f6 e2 3e da 27 06 3f 48 f8 2d 3f b2 b6 26 3f
       0.4432854 0.5240456 0.6795697 0.6512252
0000c0 43 57 7d 3e 57 6b d8 3d 03 cc 0d 3f 89 f7 85 3d
       0.24740319 0.105673485 0.5538942 0.06541354
0000d0 25 e4 30 3f 96 96 c2 3e a0 04 3c 3f 7a 21 98 3e
       0.6909812 0.38005513 0.7344456 0.2971304
0000e0 63 91 1b 3f 77 b2 2b 3f 9c bc ec 3e 36 66 26 3f
       0.6076872 0.6706919 0.46237648 0.6499971
0000f0 52 4d 28 3f 06 a0 17 3f f5 1b 1c 3f 53 74 fa 3e
       0.6574298 0.5922855 0.6098016 0.48916873

net.0.batch_norm.bias f4 [64]
000000 a6 ce b6 be 4b 61 bc bd 23 62 1c bf 81 ad bf bf
       -0.35704535 -0.09198245 -0.61087245 -1.4974824
000010 c5 34 a1 bf e9 f2 76 bc 91 c8 92 be a2 5d 14 bf
       -1.2594229 -0.015072563 -0.28668645 -0.5795537
000020 59 c7 95 bf 1b bc 84 bc 24 bc ae bf aa 1f 9c bf
       -1.1701461 -0.016202977 -1.3651166 -1.2197163
000030 9c f9 5d bf 0c 1b 5c bc 22 e3 7c bd 25 05 a5 bf
       -0.86709 -0.013434183 -0.06174005 -1.2892195
000040 fa 18 8f bf 15 de 5a bf d7 83 a1 bf 25 d7 1b 3d
       -1.1179497 -0.8549512 -1.2618359 0.038046975
000050 d8 fb bc bf 5a 6a b1 bf 50 a3 89 bf 96 b6 8a bf
       -1.4764357 -1.3860581 -1.0752964 -1.0836971
000060 23 bc b6 bc 24 84 2a bf ad fe 61 bf 37 83 c8 be
       -0.022306507 -0.6660788 -0.8827923 -0.3916261
000070 37 28 a5 bf 34 6d 29 bf a2 9d a0 bf 06 e0 b7 bf
       -1.2902898 -0.66182256 -1.2548106 -1.4365242
000080 e4 e8 68 bf 85 b8 5d be 6b 5a 6a bf b7 2d 0b bf
       -0.9098036 -0.2165242 -0.91544217 -0.5436663
000090 77 92 3b bc 55 d9 af bf cb c6 82 bf 18 30 90 bf
       -0.011448494 -1.37382 -1.0216917 -1.1264677
0000a0 3f bd 79 3e 5c 75 21 bf 9b fa fb 3c 98 6d 05 bf
       0.24388598 -0.630697 0.030759146 -0.5212035
0000b0 95 87 14 bf 86 1d 74 bf cd 32 b5 bf 6f e8 aa bf
       -0.5801938 -0.9535755 -1.4156128 -1.3352183
0000c0 6f df 28 be c0 82 ab bb ae a6 54 bf 5c 35 3c 3d
       -0.16491483 -0.0052340925 -0.83066833 0.045949325
0000d0 1c 1b 9c bf f5 62 13 bf a2 b2 b1 bf 5e c7 ba be
       -1.2195773 -0.5757287 -1.388264 -0.3648023
0000e0 e1 08 93 bf e5 54 a9 bf 25 87 36 bf 21 7d a8 bf
       -1.1487085 -1.3229033 -0.71299964 -1.3163186
0000f0 f5 aa 93 bf a0 53 52 bf 52 72 8d bf a2 5f 84 bf
       -1.1536547 -0.8215885 -1.1050513 -1.0341685

net.0.batch_norm.running_mean f4 [64]
000000 18 44 b8 bd 90 26 a7 3c f6 49 ec bd bf bb 5e be
       -0.08997363 0.02040413 -0.115375444 -0.21751307
000010 e1 f2 e6 3c 76 de 97 3d a4 62 07 3e 44 3e 1a bd
       0.028191986 0.07415478 0.13221222 -0.037657037
000020 c9 fb 43 bc c3 3c 7c 3d 1a d8 84 bd 22 bf 9b bd
       -0.011961886 0.061581384 -0.064865306 -0.07604815
000030 7e f2 84 bd e8 a2 f6 3d d2 f8 a8 3c 10 50 2f 3d
       -0.06491564 0.12042791 0.02062646 0.042800963
000040 e3 cb 93 3c 2a 14 b4 bd 22 4f 38 be 0a 6f 5d 3d
       0.018041557 -0.087929085 -0.17998937 0.054060973
000050 9a 99 6b be 5c 1a 82 bd 02 1c 05 3d b6 63 55 bd
       -0.23007813 -0.06352684 0.032497413 -0.052097045
000060 0c 1d 0d bd dd 4d dc 3c ce 57 0d bd 02 9a 99 bd
       -0.03445153 0.026892597 -0.034507565 -0.07500078
000070 b6 8a 95 be aa ea 80 bd e4 d5 44 be f3 b9 0a 3e
       -0.2920739 -0.062947586 -0.19222218 0.13547496
000080 db 91 78 3d 69 08 4b 3d 70 7b 6f 3c a4 72 1f bb
       0.060685974 0.049568567 0.014616832 -0.0024329806
000090 a7 87 8b bb fc 19 98 3c c1 96 01 bd 53 8e 8b 3c
       -0.0042581144 0.018567078 -0.03163791 0.017035639
0000a0 15 25 5a 3b 5e 4a 99 bc 4a b4 35 be d9 cf 22 3e
       0.0033286263 -0.018712219 -0.17744556 0.158996
0000b0 18 ff 05 3e d1 cc 07 3e bd 88 02 3e ae 1d 96 bd
       0.13085592 0.13261725 0.12747474 -0.0732988
0000c0 89 e5 e2 3d a6 46 42 3b e5 36 3e 3a 29 53 57 3d
       0.110789366 0.002964416 0.0007256105 0.052569542
0000d0 8e e2 cf bd 34 45 f8 bc 17 96 06 be 81 1e 1a be
       -0.10150634 -0.030306436 -0.13143192 -0.15050699
0000e0 e6 b4 99 bc 73 a4 22 bd 2f 6f 02 be 63 b6 05 be
       -0.018763017 -0.039707612 -0.12737726 -0.13057856
0000f0 24 e4 5b bd 31 82 2e bd 50 e0 9a ba ec 86 13 bd
       -0.05368437 -0.04260463 -0.0011816118 -0.036017343

net.0.batch_norm.running_var f4 [64]
000000 45 ff 83 3f a1 90 8e 3f 41 73 8c 3f f8 1d 64 3f
       1.0312277 1.1137887 1.0972673 0.8910823
000010 4a ea 68 3f 0b 99 8b 3f 51 dd 8b 3f a9 58 6a 3f
       0.90982497 1.090608 1.0926915 0.91541535
000020 af d6 6f 3f 62 89 8c 3f 45 3e 89 3f 62 99 50 3f
       0.93686956 1.0979426 1.0722128 0.81484044
000030 d4 85 71 3f ab 3c a7 3f df c7 9e 3f 88 c6 52 3f
       0.9434483 1.3065389 1.2404746 0.82334185
000040 08 14 8a 3f 59 e1 75 3f 96 97 58 3f 89 d5 9e 3f
       1.0787363 0.9604698 0.846063 1.2408916
000050 ab ce 6a 3f eb ec 5b 3f fc d6 58 3f 09 91 62 3f
       0.917216 0.85908383 0.8470304 0.88502556
000060 39 43 86 3f 37 31 72 3f 43 a4 84 3f 3c 89 67 3f
       1.0489265 0.94606346 1.0362629 0.9044378
000070 8b 11 58 3f 91 81 6f 3f 9d c6 89 3f be 41 6e 3f
       0.8440177 0.9355708 1.0763737 0.93069065
000080 12 2a 60 3f 39 73 92 3f f8 cd 52 3f d9 c3 78 3f
       0.87564194 1.1441413 0.82345533 0.9717384
000090 5a 7b 96 3f c1 61 7b 3f f4 a6 80 3f 5a 13 7b 3f
       1.1756394 0.98196036 1.005095 0.98076403
0000a0 91 42 9e 3f 0a 20 87 3f 09 6c a1 3f f2 ec 63 3f
       1.2364064 1.0556653 1.2611095 0.89033425
0000b0 49 46 8c 3f 71 27 67 3f ac 9a 6f 3f b7 aa 77 3f
       1.0958949 0.9029456 0.93595386 0.96744865
0000c0 fd 9e 63 3f e2 dd 9f 3f 82 5c 7b 3f 8a f1 a3 3f
       0.8891447 1.2489588 0.9818803 1.2808087
0000d0 4b 24 5e 3f 57 2d 81 3f 39 47 80 3f d6 7d 62 3f
       0.8677413 1.0091962 1.0021735 0.8847326
0000e0 01 9d 5c 3f 35 3b 54 3f a3 cc 69 3f 78 b1 7d 3f
       0.8617707 0.8290284 0.91327876 0.9909892
0000f0 cf 92 61 3f f6 f4 58 3f f1 13 67 3f dc c2 56 3f
       0.8811464 0.8474878 0.90264803 0.8389108

net.1.conv_trans2d.weight f4 [64, 32, 4, 4]
000000 49 bd d7 3d 98 ae a8 bd 87 63 f6 bc c1 29 0c 3d
       0.1053415 -0.08236426 -0.030076755 0.034219507
000010 7e 84 64 3c 09 44 4c be 82 ad 84 bd 9f bd 25 3d
       0.013947604 -0.19947828 -0.064784065 0.04046404
000020 af e7 04 bd 2c 33 b0 bd 95 a9 17 bd f4 22 b5 bd
       -0.032447513 -0.0860351 -0.03702696 -0.088445574
000030 11 5a e4 bd 1a 40 29 bd 4c 5a 44 3d 8f cb c2 bd
       -0.11149991 -0.041320898 0.047937676 -0.09511482
000040 e4 4b c0 3d 85 b6 0f be b8 6d 10 bb 57 c4 39 be
       0.09389475 -0.1403447 -0.0022038054 -0.18141304
000050 b1 49 f5 3c 36 c3 62 3c e1 d4 30 be 25 c9 28 3d
       0.029942365 0.013840487 -0.17268707 0.04120745
000060 d6 3f 70 3d 77 fa f6 3b 91 72 cc 3d 93 89 21 be
       0.05865463 0.007537182 0.09982789 -0.15775137
000070 f9 7c 3c 3d 49 88 d6 bc 40 39 82 3d bc 9f 4e 3e
       0.04601762 -0.026188033 0.06358576 0.20178121
000080 c1 86 ba bc 06 ab 9a 3d 8d 98 77 bb bd a6 62 3c
       -0.022769334 0.075521514 -0.0037780136 0.013833699
000090 1e 67 df 3d cd b3 e3 3d 30 cb 52 bd 19 3a e5 3d
       0.1090834 0.11118279 -0.051463306 0.11192722
0000a0 86 24 bb bc 36 89 0c 3d d6 d6 5b 3d c4 94 9a bb
       -0.022844564 0.034310542 0.05367168 -0.0047174413
0000b0 53 84 ad bd 87 18 c7 3d 45 e2 ce 3c fc 50 37 bd
       -0.084725045 0.09721475 0.025254378 -0.044754967
0000c0 90 b0 2a 3e eb 28 48 3e fd ec 92 3d 05 da b9 bd
       0.16668916 0.19546859 0.07174108 -0.09074787
0000d0 b7 d9 d8 bd 88 23 ad 3d 8f da 36 3e 91 89 32 3d
       -0.10588401 0.08454043 0.17856811 0.043588225
0000e0 2d cc 3c 3d 82 1d 97 3d fb f0 dd bd 7b 55 09 bd
       0.046093155 0.07378675 -0.10836979 -0.033528786
0000f0 c5 df a5 bd 4d 53 1f bb 11 86 f4 bd 83 d2 87 3d
       -0.08099321 -0.0024311126 -0.11939634 0.06631949
000100 09 57 8e 3c a2 ac 8a 3d b4 3d 6b bc 2b f1 05 3d
       0.017375486 0.06771208 -0.014357973 0.0327007
000110 8d ee 14 3d f5 67 94 3d 65 4c c3 3d 5f 62 bd bd
       0.036360312 0.07246391 0.095360555 -0.092472784
000120 34 15 a5 bc ce 70 e0 bd 7b 73 08 be 3a 84 21 3d
       -0.020151712 -0.10959016 -0.13325302 0.03943274
000130 38 e5 55 be 84 f5 19 be b6 33 21 be ae da 38 3d
       -0.20888221 -0.15035063 -0.15742382 0.045130424
000140 c8 85 16 be ed 8d 9c bc e7 e7 fb bd 8a 1a 02 be
       -0.14699471 -0.019110644 -0.12300091 -0.12705436
000150 12 4e 87 3c b8 7c 1d bb a4 f2 fd 3d 09 d8 7a bd
       0.016516719 -0.0024030637 0.12399796 -0.061241183
000160 fa fc ae 3a d8 8a 85 3d 4f 53 5c bd 71 42 02 3e
       0.0013350539 0.06520623 -0.053790387 0.12720658
000170 ee 47 b2 bd 47 c6 a9 bd b3 30 45 3d e9 23 00 bd
       -0.08705126 -0.082897715 0.048142146 -0.031284247
000180 e2 c4 7a bc 24 6b c5 bd 72 9c f4 3c f6 8e df bc
       -0.01530573 -0.09639576 0.029859755 -0.027289849
000190 b0 c1 94 3d 8d e5 5a 3d 4d ad 84 3d 85 19 e0 3c
       0.072635055 0.053441573 0.06478367 0.027355919
0001a0 36 26 2c be c1 1b ca 3c 3e 15 6b 3d 1b 79 09 3d
       -0.16811451 0.024671437 0.057393305 0.03356276
0001b0 fe 4a 23 be 9e c1 b4 bd 02 b1 3e bd a2 d7 40 3c
       -0.15946576 -0.08825992 -0.046555527 0.011770161
0001c0 99 a3 19 3e 29 38 c4 bd 0b 3d aa bd 71 eb 1c 3e
       0.15003814 -0.09581024 -0.08312424 0.15324189
0001d0 85 8b 0f bd 06 9e 76 3c dc 5e ac bc ee 42 b3 3d
       -0.035045166 0.015052324 -0.021041326 0.08753
0001e0 69 cf 93 be 34 59 97 3d 07 e2 1a 3e 1b 32 f6 3a
       -0.2886918 0.07390061 0.15125285 0.0018783243
0001f0 54 8d 0a bd 4d b9 07 be 8e d8 f0 bc 6b 53 f0 3d
       -0.033826187 -0.1325428 -0.029400136 0.11734661
000200 b0 c2 b4 3d b3 66 30 be 8b 8f 00 3e 71 65 65 be
       0.08826196 -0.17226677 0.12554757 -0.22401978
000210 50 c9 f3 3d 00 3d 94 3d 45 03 b4 bd cc 1d 16 3d
       0.11903632 0.07238197 -0.08789686 0.03664951
000220 1d a8 27 be c6 99 e3 bd ff f2 28 bd 88 e4 08 be
       -0.16372724 -0.11113314 -0.041247364 -0.13368428
000230 6f 6b 86 3d 94 ab 8e 3d f3 4a 3a bc 28 46 08 be
       0.0656346 0.0696632 -0.011370408 -0.13308012
000240 a3 eb 40 bd 8e df da 3c e3 86 04 bb 62 a5 f7 3c
       -0.04709972 0.026717927 -0.0020222 0.030230228
000250 80 07 18 bd eb d5 f4 3d 60 dd a0 bc 85 72 89 3d
       -0.037116528 0.11954864 -0.01963681 0.06711296
000260 fc 44 26 3d 1d 1a 14 bd a5 28 a3 3d 51 5d 58 3d
       0.040593132 -0.036157716 0.07966737 0.05282337
000270 c0 72 68 3c e3 92 69 bd 15 7a 4a be 96 d5 34 3d
       0.014187515 -0.057024848 -0.19773133 0.044149004
000280 51 10 36 be 26 f2 b2 bc eb 31 de bd fe f4 6a bd
       -0.17779662 -0.021843981 -0.10849365 -0.05736255
000290 e5 76 c3 3d 72 c2 58 3d a0 4b d9 3d 2c c3 08 3e
       0.09544162 0.052919813 0.106101274 0.13355702
0002a0 a6 da 0d bd b9 a1 08 3c 9a 77 d3 bd 10 ea f7 bc
       -0.034632348 0.008339339 -0.103255466 -0.030262977
0002b0 72 a5 80 3a 5c fa 5f bd d8 41 c5 3c 6b b1 fa bd
       0.0009814932 -0.05468212 0.024079248 -0.12240871
0002c0 ef a0 80 3c 8b b5 71 bd 31 1b 61 3d 24 7a 10 3e
       0.01570174 -0.059011023 0.054957572 0.14109093
0002d0 b1 be 31 3d 48 3e 89 bc 3a ae 52 bc c7 29 93 bc
       0.043394748 -0.01675333 -0.012858922 -0.017964257
0002e0 e3 8a 41 bd 48 27 be bd 49 72 40 bd 12 4f a6 bc
       -0.047251593 -0.09284836 -0.04698399 -0.020301376
0002f0 f9 b4 99 bd ed b7 43 bd 3e 4f 5e bc 94 cf ea bd
       -0.07505221 -0.047782827 -0.0135686975 -0.11465374
000300 74 b2 5d bd 00 74 e9 bc 2e 53 f3 bc cf be 42 bd
       -0.054125264 -0.028497696 -0.02970275 -0.04754525
000310 8c 54 5f 3d ad 1f cd 3d 27 45 51 3d ff 82 51 3c
       0.05452399 0.10015807 0.05109134 0.01278758
000320 3c e3 99 bd f2 41 90 3b b5 17 34 3e c4 74 85 39
       -0.07514045 0.0044023925 0.17587169 0.00025454734
000330 55 fe 6d be cb ce 21 bd cd 20 89 bd 65 05 80 3c
       -0.23241551 -0.039503854 -0.066957094 0.015627572
000340 98 2a ee bc 99 60 0c be 69 a1 8a bd 8e 28 94 3d
       -0.029073045 -0.13708724 -0.06769068 0.07234298
000350 4b 5a f2 3c 9f 9c c4 bd 84 a1 cc bd 1f b7 37 bd
       0.02958407 -0.096001856 -0.09991744 -0.044852372
000360 d3 fd 3e be 64 a9 40 3d e9 6f ab 3d 55 69 b9 bc
       -0.18651514 0.047036543 0.083709545 -0.022633234
000370 db de da bd 13 70 9a bb 48 88 60 3c 87 7b 8a bd
       -0.106870376 -0.0047130673 0.013704367 -0.06761842
000380 62 af a7 bd 2a e9 09 be e8 5f c0 be 20 bd e0 3d
       -0.081877485 -0.13467851 -0.3757317 0.10973573
000390 44 fe cb bd 75 8e 7f be 43 76 07 3d 00 4a c5 3c
       -0.09960607 -0.24956687 0.033071768 0.024083138
0003a0 ef af 63 3d 42 3c da 3d 66 62 c4 3d e9 74 8a be
       0.055587705 0.106560245 0.095890805 -0.2704232
0003b0 ce 70 f3 bc 09 49 fa bc e4 77 09 be 71 d0 2e 3c
       -0.029716875 -0.030552404 -0.13424641 0.0106698135
0003c0 a6 7d 31 bd 26 35 ba bd 0d 4a 3c bd 99 a6 43 be
       -0.04333272 -0.090921685 -0.045969058 -0.1910652
0003d0 36 b2 96 3e df 57 0f bd af 9d dd bd 96 d4 8f bd
       0.2943284 -0.03499591 -0.108210914 -0.070229694
0003e0 a5 84 02 be 9b 2d 6c be d6 a6 33 3c 8a 98 0d be
       -0.12745912 -0.23064272 0.01096507 -0.1382772
0003f0 b9 19 03 be 12 48 71 bd 60 22 79 3d db fc 5b 3c
       -0.12802781 -0.058906622 0.0608238 0.013426985

net.1.conv_trans2d.bias f4 [32]
000000 7b de 1a 3d 83 73 9a bc 52 3c b0 3c 80 d8 56 3c
       0.03780983 -0.018853908 0.021513138 0.013113141
000010 4d 77 8c 3e a8 75 7a be 61 5f 41 3c c9 25 1d be
       0.2743477 -0.24458945 0.011802525 -0.15346445
000020 09 6f ba 3b 61 aa 10 3e 3f bc c1 bc c1 08 27 be
       0.005689506 0.14127494 -0.023649333 -0.16311933
000030 a9 de ba bd 91 a3 4d bd c9 3e f5 bc de 29 8a bc
       -0.091245 -0.050204817 -0.029937165 -0.016865667
000040 23 59 01 be cd fa 23 bd 22 31 00 3e ec 5a 33 3c
       -0.12631659 -0.040034104 0.12518743 0.01094697
000050 1c 90 7a 3d 4e 53 0f bd a9 12 ed bd ec 2a 37 3d
       0.06117259 -0.034991555 -0.11575825 0.044718668
000060 9c 90 8b be 9b 00 d4 3c b3 31 fd bd cb 82 a8 bb
       -0.27258766 0.025879195 -0.12362995 -0.005142545
000070 a0 46 9a bd 87 68 3f 3d 3e b5 0f 3d 70 f8 12 be
       -0.07533002 0.046730544 0.035084955 -0.14352584

net.1.batch_norm.weight f4 [32]
000000 33 e7 f5 3f 08 30 aa 3f fe 24 e2 3f e8 73 ec 3f
       1.9211181 1.3295908 1.7667539 1.8472872
000010 87 0e 0d 40 4e 6a 8f 40 43 cf 4b 40 67 ae 01 40
       2.2040117 4.4817266 3.1845253 2.0262697
000020 93 63 e3 3f e5 e0 6f 40 9b f2 5a 40 97 0f ff 3f
       1.7764763 3.7481015 3.4210575 1.9926633
000030 28 d9 87 40 c0 d3 11 40 8c f4 1d 40 aa 82 ff 3f
       4.2452583 2.2785492 2.468051 1.996175
000040 24 86 80 40 af 38 f2 3f b8 41 06 40 1b af 71 40
       4.0163746 1.8923548 2.0977612 3.7763126
000050 2c 51 fe 3f 09 5e 4b 40 db 46 1c 40 73 2b 02 40
       1.9868522 3.1776145 2.4418247 2.033902
000060 42 a1 30 40 e9 cb 0a 40 dd 81 72 40 b7 79 ef 3f
       2.7598424 2.1686957 3.7891762 1.870902
000070 72 6b fc 3f e5 17 d6 3f d0 1c 05 40 96 c6 0b 40
       1.972029 1.6726042 2.0798836 2.1839957

net.1.batch_norm.bias f4 [32]
000000 11 24 a8 3d 41 df a4 3e 5c 7f 2b be 06 d7 00 bf
       0.08210004 0.3220158 -0.16747802 -0.503281
000010 7f 7e 94 bf 93 84 e3 bf 89 d1 a2 bf 21 09 95 bf
       -1.1601104 -1.7774833 -1.2720195 -1.1643411
000020 7b 14 b9 3e 35 52 a3 bf 24 1b 89 bf 6c 75 38 bf
       0.36148438 -1.2759463 -1.0711408 -0.7205417
000030 6b ea e5 bf d4 7a 5b bf 2e da 82 bf 54 3d 02 bf
       -1.7962164 -0.85734296 -1.0222833 -0.5087483
000040 2f 39 77 bf dc b5 2a bf c0 f6 52 bf bc 49 97 bf
       -0.9657163 -0.66683745 -0.8240776 -1.1819377
000050 0f 87 b5 bb 34 15 a3 bf 8a 22 0e bf e8 81 56 be
       -0.005539782 -1.2740846 -0.5552145 -0.20947993
000060 c4 92 2a bf cb c4 e9 be 02 a5 be bf 08 26 dd 3d
       -0.66630197 -0.45657954 -1.4894106 0.107982695
000070 34 f2 bb bd b8 cd da 3e ad 3b da bd 2a 65 6f bd
       -0.09177056 0.42735076 -0.106559135 -0.058446087

net.1.batch_norm.running_mean f4 [32]
000000 44 b9 ed 3c 42 4b 45 bd ad 0c c6 bc ae f8 b5 bd
       0.029019006 -0.048167475 -0.024175966 -0.088853225
000010 67 fa 20 3e 52 e0 9e be 60 de a9 bd 2a c6 95 be
       0.15720521 -0.31030518 -0.08294368 -0.2925275
000020 ba 40 70 bb fd 29 84 3d 81 22 f0 bd 16 06 8d be
       -0.0036659674 0.06453321 -0.11725331 -0.27543706
000030 ad 35 4c be f0 32 2e be 06 cb 20 be 0c 42 bf bd
       -0.1994235 -0.17011619 -0.15702447 -0.09338769
000040 58 7b 3b be fc dd 05 be 13 4d c2 bc 17 dd 46 bd
       -0.1830877 -0.13072962 -0.023718392 -0.04855069
000050 9d bc ce 3c 06 11 05 be 55 af 42 be 78 14 c2 bc
       0.025236422 -0.12994775 -0.19012196 -0.0236914
000060 2c 68 a9 be 9a e4 8f bd 16 a2 49 be 4f a3 81 bb
       -0.3308729 -0.07026024 -0.19690737 -0.0039562355
000070 e1 39 e7 bd 70 39 b8 3d 3d bc 9e 3d 33 04 37 be
       -0.112903364 0.0899533 0.07750747 -0.17872696

net.1.batch_norm.running_var f4 [32]
000000 36 ec 0c 3d ac 70 e5 3c 67 81 1a 3d d9 55 2e 3d
       0.034404956 0.028007828 0.037721064 0.04256234
000010 6b 4e 1f 3d 8a fe 46 3d 48 c7 45 3d 41 34 17 3d
       0.038893145 0.04858259 0.048285753 0.036915068
000020 78 ec cf 3c 8f c7 4e 3d 16 cf 64 3d 81 4a 2e 3d
       0.025381312 0.050483283 0.055861555 0.04255152
000030 fc 73 40 3d 13 64 1e 3d ae 5f 2d 3d 65 33 50 3d
       0.04698561 0.038669657 0.042327575 0.050830264
000040 86 cb 64 3d 43 0f 23 3d 61 ce 17 3d 23 e1 6b 3d
       0.055858158 0.039809477 0.037062053 0.057587754
000050 34 66 0b 3d ca 5e 41 3d 2d cb 33 3d 60 c2 10 3d
       0.034033015 0.04720954 0.043894935 0.03534162
000060 82 a1 47 3d ca 24 66 3d 62 8a 59 3d 8f 9a 0d 3d
       0.04873801 0.05618743 0.053110488 0.034571227
000070 22 39 15 3d fc a7 01 3d e1 78 d6 3c 4d 88 e4 3c
       0.03643144 0.031654343 0.026180686 0.027897025

net.2.weight f4 [32, 3, 4, 4]
000000 8b 94 44 3e a1 df 92 3e 9f 86 a7 3e 40 2c 5a 3e
       0.1919729 0.2868624 0.32719895 0.21305943
000010 33 ba 89 3d 64 a3 a5 3e b4 c3 c7 3e 0d ce 32 3c
       0.06724968 0.3235122 0.39016497 0.010913384
000020 a5 a3 9a 3d 86 3e 1c bd 3a 2b 18 bd 0f 50 ff bd
       0.07550744 -0.038145564 -0.0371506 -0.12466442
000030 43 a8 b0 3d 5a bc cd 3e e5 46 a6 3e 8f 40 18 3d
       0.086258434 0.40182763 0.32475963 0.037170943
000040 b3 d4 41 3e de 8a 7c 3e c9 be ae 3e 3c a6 60 3e
       0.18928795 0.24662349 0.34129933 0.21938413
000050 4d 09 87 3d 7d d1 cc 3e d7 3c ae 3e 42 4d 8d 3d
       0.06593571 0.40003577 0.34030792 0.068995014
000060 eb 03 d8 3c 51 ee 27 be 6b b4 19 be d2 76 24 3c
       0.026369056 -0.16399504 -0.1501023 0.010038095
000070 6c 3e ca 3d f4 3e b8 3e c0 d9 a7 3e b0 9a e2 3d
       0.09875187 0.3598553 0.32783318 0.110646605
000080 e9 b7 32 3e 32 6d 96 3e 11 df 59 3e ee 13 2b 3e
       0.17452969 0.29380184 0.212765 0.16706821
000090 2b 26 42 3c 85 38 ab 3e 90 26 a1 3e 43 a8 e9 3b
       0.01184992 0.33441558 0.31474733 0.007130654
0000a0 4f c9 f1 3d 13 75 ce bd 83 33 f1 bd 5e fc 2a bb
       0.11805975 -0.10080924 -0.11777403 -0.0026090364
0000b0 48 34 b8 3d 3a 47 dc 3e 12 1c b6 3e 3a b8 53 bc
       0.08994347 0.43023092 0.3556829 -0.012922341
0000c0 b9 cd 13 be ad 05 a8 3c 36 d0 74 3e 46 d3 08 bd
       -0.14433946 0.020510519 0.23907551 -0.03340461
0000d0 58 f8 72 be ed 43 07 be ce d5 d9 be 62 bd b1 be
       -0.23727548 -0.13209505 -0.42545933 -0.347148
0000e0 63 bf 2e 3d 2d 8d 22 be 1b 5e a8 bd 66 ee b9 bd
       0.04266299 -0.15874167 -0.08221074 -0.09078674
0000f0 37 c9 a9 bd a6 83 80 bd 62 3d 35 3d 01 ee e3 3c
       -0.08290332 -0.0627511 0.044247992 0.02782345
000100 7c 6c e1 bd d5 84 77 bc e9 98 12 3e c5 59 04 be
       -0.1100702 -0.015107353 0.14316143 -0.1292487
000110 43 18 5e be 1b 49 25 be 10 85 d8 be 18 a0 05 be
       -0.21688943 -0.16141169 -0.4228902 -0.13049352
000120 79 f1 2d be 37 32 81 be 83 49 5d bc eb 40 93 bd
       -0.16986646 -0.25233623 -0.013506296 -0.071901165
000130 85 68 25 be 2b 6f 18 be b5 81 86 bd 70 79 de bd
       -0.16153152 -0.14886157 -0.065677084 -0.10863006
000140 13 ae f8 3c 62 d4 c8 3d cb cc bc 3e 6b ea b4 3c
       0.030356443 0.09806134 0.36874995 0.022084435
000150 b2 4a 08 bd 82 a2 16 3e 7c 89 86 be 4d 65 9f bd
       -0.03327436 0.1471043 -0.26276767 -0.077829935
000160 35 55 0f be ca b0 b0 be e5 fd 72 bd c6 37 77 be
       -0.13997348 -0.3450988 -0.059324164 -0.2414237
000170 3a 1d 42 be c2 46 11 be 0b 51 31 bd 7e 8e 87 bd
       -0.18956462 -0.14187148 -0.04329018 -0.06618975
000180 a1 03 2a be bd 88 81 be 44 a7 43 be e5 72 d6 bd
       -0.16602947 -0.25299636 -0.19106776 -0.10471133
000190 2a c4 09 bf f5 cd a8 3e 49 eb 66 3d 84 ba 52 3d
       -0.5381495 0.32969633 0.05637673 0.051447406
0001a0 a4 8d b3 3e 57 f9 a4 b9 1e 81 6f 3e 6e f8 d8 3e
       0.35069 -0.0003146629 0.23389098 0.42377037
0001b0 b1 63 2c 3e 8b ec 34 3e 6f 26 5a 3e 3b a6 8d 3d
       0.16834904 0.17668359 0.21303724 0.069164716
0001c0 5d 04 ab be 09 90 f9 bd fb 38 d4 3c e4 d6 b0 3c
       -0.33401766 -0.12185676 0.025906077 0.021586843
0001d0 e0 09 18 bf 70 93 6f 3e 80 f8 44 3e 3d 17 e9 3d
       -0.5939007 0.23396087 0.1923542 0.113813855
0001e0 df 08 e3 3d 50 0e d0 bc 9f 0c db 3d 04 73 94 3e
       0.110856764 -0.02539745 0.10695767 0.28994
0001f0 74 00 1b 3e 5a 53 0d 3e eb 3a 3f 3d 36 2c 87 3e
       0.15136892 0.13801327 0.046687048 0.26400918
000200 25 ab b4 be 23 45 08 bf aa cb c5 be 35 fd 6e bd
       -0.35286823 -0.53230494 -0.38631946 -0.058346946
000210 87 bf 18 bf a7 42 7e 3d cb 78 bb bd cb bd 48 3c
       -0.5966725 0.062075283 -0.09153899 0.012252281
000220 ea a8 2f 3e 1a 65 03 be 84 a2 93 3d df 77 47 3e
       0.1715428 -0.12831536 0.07208732 0.19479321
000230 b7 e2 a4 3d 8d e5 07 3e a8 48 4b 3e 1f c0 b4 3d
       0.08051055 0.1327116 0.19851935 0.08825707
000240 9e ac 0e bd 65 ad 89 3e 72 ac d9 bb 05 58 83 3c
       -0.03483259 0.26890102 -0.0066428715 0.016033182
000250 24 50 0e 3f db 04 a9 bd 4e 58 f9 3d 72 19 93 bb
       0.55591035 -0.08252879 0.12175046 -0.0044891173
000260 c1 d3 86 bf 9c c0 ed 3d bd b7 90 3e 45 65 78 3e
       -1.0533372 0.11609003 0.2826518 0.24257381
000270 69 d2 a6 3e 74 9c f6 be fb c8 ab be c0 2a b6 3e
       0.32582405 -0.4816624 -0.33551773 0.3557949
000280 8a d6 39 3e 4e 72 1c 3e bd d3 02 be f7 fa 34 bc
       0.18148246 0.15277979 -0.12776084 -0.011046163
000290 23 c3 ac 3e 59 01 55 be f7 ce c1 3d fc d8 d3 bd
       0.33742628 -0.20801295 0.094633035 -0.10344121
0002a0 bd b8 62 bf 80 9e a7 bd 84 22 be 3c 7f 63 11 3d
       -0.8856314 -0.08184528 0.023209818 0.035495277
0002b0 79 bf e0 3e 69 3e 12 bf 86 d1 cc be bc 34 09 3e
       0.43896082 -0.5712648 -0.40003604 0.13399023
0002c0 a6 09 04 3e aa f0 f9 3d df f4 67 be 26 54 93 bd
       0.12894306 0.12204106 -0.22652005 -0.071937844
0002d0 86 0a 09 3f ef 6c 00 be 8f 47 d3 bd 95 85 41 3d
       0.5353168 -0.12541555 -0.10316383 0.047246534
0002e0 b6 d0 64 bf 5d 23 fe 3d a5 d6 8f 3d 90 73 9d 3a
       -0.8938097 0.12409089 0.07023362 0.001201259
0002f0 06 c8 7d 3e bd 47 bb be 8d 46 ac be 6b 56 10 3e
       0.24783334 -0.3657817 -0.33647576 0.14095466
000300 e6 88 9d 3d 7c f8 5d bd c7 12 cb bb 58 48 75 bd
       0.07692127 -0.05419205 -0.006197307 -0.059883446
000310 89 2a b8 3d 86 ee 26 be d6 f5 9e bd 5f d1 b7 bd
       0.08992488 -0.16301927 -0.07761733 -0.08975481
000320 e5 a4 7e 3e 80 a8 f7 3e 89 56 de bf f3 6f 4a 3e
       0.2486759 0.48370743 -1.7370158 0.19769268
000330 d4 b8 ab 3d c7 3f f9 bf d7 44 91 3f 80 fb 9b 3d
       0.083848625 -1.9472588 1.1349133 0.07616329
000340 02 c9 da bd a0 28 86 3d d8 ba bd 3d 94 b9 31 be
       -0.106828704 0.06550717 0.09264153 -0.17355949
000350 3c c6 b5 3d 3a 94 40 be 85 9a 62 be de 2c 9f bd
       0.08875701 -0.18806544 -0.22129257 -0.077722296
000360 ac 2e 83 3c 97 66 f7 3e a7 be de bf 0c 39 e7 bd
       0.016013466 0.48320457 -1.7401932 -0.11290178
000370 78 2f e4 bd 07 d3 e5 bf 89 40 59 3f 5d 41 24 be
       -0.111418664 -1.7955025 0.848641 -0.16040559
000380 0a 0c a6 3c b8 0c d9 3b e9 34 2a 3e 10 cd 40 3d
       0.020269413 0.0066238306 0.16621746 0.047070563
000390 43 cb 29 3e ef b7 ab bd ac d9 88 be d8 f9 1a 3d
       0.16581444 -0.08384692 -0.2672857 0.037835926
0003a0 55 74 c6 bc 32 3a ad 3e 6c 8b e3 bf 07 71 2e 3d
       -0.024225393 0.33833462 -1.7776923 0.04258826
0003b0 9f d9 8b bb ff 7b ef bf 98 27 2c 3f 40 08 e0 bc
       -0.004267886 -1.8709716 0.67247915 -0.027347684
0003c0 cf 1e 50 bd b4 3f 3b bd 4c fc 1b 3d 62 ea a7 bc
       -0.05081063 -0.04571505 0.038082406 -0.020497505
0003d0 39 a8 b3 be c3 99 a8 be 43 83 ba bd ce 79 8e bd
       -0.3508928 -0.3292981 -0.091070674 -0.06956826
0003e0 c9 2d aa 40 08 c6 b9 40 71 b6 2f be a1 67 21 bc
       5.318089 5.8054237 -0.1715944 -0.009851367
0003f0 3f a5 af be 8b 22 d7 be b8 33 97 3d 4f 8e 8a bd
       -0.3430576 -0.42018542 0.073829114 -0.067654245

net.2.bias f4 [3]
000000 93 24 19 be 0d 0b d1 3a 9a fa d6 bd
       -0.14955358 0.0015948728 -0.10497017
