projects/sprites (GANs)/models/v1_200epoch_dis.pt (torch, 45219 bytes, 13 tensors)

net.0.conv.weight f4 [16, 3, 4, 4]
000000 99 d8 fb 3b 59 fe 0f bc 85 e2 37 bc a4 f7 8d 3c
       0.0076857326 -0.008788669 -0.01122344 0.017329998
000010 79 c7 50 ba f7 3b 9b bd 1b 03 74 3d 2b 5c 80 3c
       -0.0007964294 -0.07579797 0.059573274 0.01566895
000020 6a 5d 24 3c ed 57 52 be 6c 43 50 3e 7c 70 01 3b
       0.010032037 -0.20541354 0.2033822 0.0019750884
000030 f1 38 57 3c 42 e9 cf be e7 8b cc 3e 38 fb 10 3b
       0.0131361345 -0.4060765 0.39950487 0.0022122394
000040 e4 28 7e ba 01 9a c9 3a 7f 6c 9b 3c 3c 21 56 bc
       -0.0009695424 0.001538098 0.018972633 -0.013069447
000050 a9 62 95 3a 02 82 3f bd 33 35 64 3d 02 49 e3 3c
       0.0011397201 -0.046754844 0.055714797 0.027744774
000060 a2 6b 5b bc 67 9d 0e be ec c0 f7 3d d8 5f b7 3c
       -0.013392361 -0.13927232 0.12097344 0.022384569
000070 05 02 a3 bb 02 cb 7b be 02 02 73 3e 37 d6 86 3c
       -0.004974606 -0.2458916 0.23731235 0.016459567
000080 8d 78 99 3c 1c 2f 89 bc 35 9e b7 bb 6b f7 a3 bb
       0.01873424 -0.016746096 -0.0056035765 -0.0050038598
000090 7f 01 34 3c 32 e3 5c bd 12 5a 51 3d 69 f6 fa bc
       0.010986685 -0.053927608 0.05111129 -0.030635076
0000a0 8a 6c 7b ba 20 4b 1f be 1e 77 28 3e 92 7f 69 bc
       -0.0009591064 -0.15556002 0.1645169 -0.014251607
0000b0 3c c1 28 bc 8e be 89 be 6e 64 92 3e 98 96 4e ba
       -0.010299977 -0.26903194 0.28592247 -0.00078807166
0000c0 17 e7 c5 3d c2 cb ea bd 64 fb e4 3d 40 82 72 3b
       0.096632175 -0.11464645 0.111807615 0.0037003905
0000d0 65 7b 6c bd 1d 13 7f 3d c8 ad cc be a6 0d da 3d
       -0.057734866 0.062274087 -0.39976335 0.106471345
0000e0 e5 3f 5c 3e 8c 44 38 be b8 79 e3 be 48 07 2d 3d
       0.21508749 -0.17994899 -0.44428802 0.042243272
0000f0 fa cc 2d bd 83 12 68 bd 26 5e 27 3e 76 18 b6 bd
       -0.04243181 -0.05665828 0.16344509 -0.08891384
000100 15 21 12 3d 0c a0 83 bd 45 37 62 3d 53 08 94 3a
       0.03567608 -0.06427011 0.05522849 0.0011293985
000110 e2 73 31 bc 87 69 91 3c 63 25 53 be e6 2f 95 3c
       -0.010830851 0.017750515 -0.2061973 0.018211316
000120 17 83 a8 3d 52 99 e1 bd 8d ae 57 be e0 b3 b8 3c
       0.082281284 -0.11015572 -0.2106268 0.022546709
000130 19 14 37 bd fe 7a 0c bb fc 5d 43 3d a0 01 84 bd
       -0.0446969 -0.0021435614 0.047697052 -0.064456224
000140 9f cc 8b 3d 4a 4c b0 bd b1 49 7b 3d 0e fa 6d 3c
       0.06826138 -0.08608301 0.061349574 0.01452495
000150 7b df 3e bc d6 1e 16 3d ca 87 8c be 84 f1 b2 3d
       -0.011649962 0.0366505 -0.2744735 0.08737472
000160 99 a9 13 3e 76 2e c0 bd 4d de 9e be 83 da 90 3d
       0.14420165 -0.09383862 -0.31028977 0.07072928
000170 65 4e a2 3c bc c0 e1 bb 40 84 8c 3d d8 72 19 bd
       0.019812772 -0.006889431 0.06861162 -0.03746304
000180 de 66 dd 3d 6f 12 2b bd 61 12 06 be ee 1f 36 3e
       0.10810636 -0.041765627 -0.13092948 0.17785618
000190 35 f5 76 3d 27 90 10 be 86 e5 77 3e 91 f8 96 bd
       0.06029244 -0.1411749 0.2420865 -0.07371629
0001a0 7f 5c 1e be 67 e4 24 3d d6 24 d9 bd 8b d7 c1 3e
       -0.15464972 0.040256884 -0.10602729 0.3785976
0001b0 5f 35 73 3e 09 4e 01 3e 22 f7 51 3e 23 12 42 be
       0.23750828 0.12627424 0.2050443 -0.18952231
0001c0 97 1e b8 ba 6f 4d 0c bd 64 a3 82 bd 7a 63 95 3d
       -0.0014047202 -0.034253534 -0.063788205 0.07294364
0001d0 57 60 3f 3d a3 3c 85 bd e2 fe d1 3d 7d 74 2f bd
       0.046722736 -0.06505706 0.10253693 -0.0428357
0001e0 70 82 8f bd 22 76 15 bc 68 28 71 bd 54 06 6a 3e
       -0.07007301 -0.009122403 -0.058876425 0.22853976
0001f0 50 89 11 3e ca 7a b6 3d 4e c1 f4 3d 03 d4 06 be
       0.14212537 0.08910139 0.119509324 -0.13166814
000200 4e 09 85 3d 79 56 cf bc 28 64 96 bd e1 36 d5 3d
       0.06495915 -0.025309788 -0.07343322 0.10410858
000210 da 35 97 3d b8 93 50 bd 34 db 06 3e 8b a1 f9 bc
       0.07383318 -0.050922126 0.13169557 -0.030472538
000220 f6 ef 94 bd c6 1e 99 bc e3 fb c8 bd 47 8b 91 3e
       -0.072723314 -0.018691432 -0.098136686 0.28426573
000230 75 bb 0b 3e 25 af f8 3d cb ac ef 3d e6 da f1 bd
       0.13645728 0.12142781 0.117028795 -0.1180933
000240 31 8a bc 3e 17 35 e8 3e b7 ed ea bd 33 98 77 bd
       0.36824182 0.45353004 -0.11471122 -0.060447883
000250 14 28 9f 3d c5 68 19 3e 61 bb 1d 3d 6a 8d 9a bd
       0.07771316 0.14981373 0.038508777 -0.07546504
000260 a2 e9 a6 be 51 2d c8 3d fe 93 fd 3c 42 bf 1d 3d
       -0.32600123 0.097742684 0.030954357 0.038512476
000270 80 ed 25 3c 74 25 b1 bd 12 af 46 3d 8e 01 0f 3c
       0.010127425 -0.08649722 0.048506804 0.008728398
000280 59 ac 31 3e bd b1 6c 3e 63 f1 7f bd 2a 88 83 bd
       0.17350902 0.23114677 -0.062486064 -0.064224556
000290 1e ac 16 3d d6 e3 14 3e 1e f8 26 3d 53 c5 17 bd
       0.036785237 0.14540038 0.040763967 -0.037053417
0002a0 be 85 04 be be c3 3f 3d 38 57 7e 3b 1e e2 62 3c
       -0.12941644 0.046817534 0.003880931 0.013847856
0002b0 9d 6a e8 3c 3e 55 55 bd 3b f6 9e 3c 35 f2 a1 3c
       0.02837115 -0.052083246 0.019404521 0.019768814
0002c0 b3 37 43 3e e3 83 94 3e ce 42 bb bd c1 75 64 bd
       0.19064216 0.29006872 -0.09143601 -0.05577636
0002d0 fd 4f 69 3d d4 5d df 3d 69 49 12 3d 08 92 a2 bd
       0.05696105 0.10906568 0.03571454 -0.079380095
0002e0 c2 03 59 be 5e 5a 73 3d 55 1a 8b 3b 7c 58 4f 3d
       -0.2119284 0.059412353 0.0042450824 0.050621495
0002f0 a9 af e7 39 d9 c2 4f bd 84 7c bc 3a 61 f9 49 bb
       0.0004419063 -0.05072293 0.001438037 -0.0030818807
000300 d7 16 c0 3d bb d0 b1 3b 24 be 04 be 7e c9 3e 3e
       0.09379356 0.005426494 -0.12963158 0.1863155
000310 61 cc 47 bd 34 2e 49 bc 9d f1 aa 3d 57 17 2c be
       -0.048778895 -0.012279082 0.08346865 -0.16805778
000320 c3 46 a3 bd 0e 75 2d 3f 2d a8 9e 3e a2 d6 69 be
       -0.07972481 0.67756736 0.30987683 -0.22835782
000330 40 41 84 3d 90 b2 43 bd 68 f4 fc bd 9f 69 cf 3d
       0.06457758 -0.047777712 -0.12351304 0.101275675
000340 e4 f2 3c 3d dd 54 d2 3b 5b 29 c2 bd 42 a3 b9 3d
       0.046130076 0.006418808 -0.09480544 0.09064342
000350 8f 2f 75 bd 8f b9 70 3c 1c 09 bd 3c c1 09 dd bd
       -0.05985981 0.014692678 0.023075633 -0.10792876
000360 1d ce 94 3b 83 5d 99 3e 86 f3 24 3e 21 14 7b bd
       0.004541172 0.29954156 0.16108522 -0.061298493
000370 49 a0 27 bb 6e 05 c4 3a 14 80 68 bd 91 21 05 3d
       -0.0025577715 0.0014955231 -0.05676277 0.032502715
000380 8b 18 35 3d 31 f4 32 bd 71 44 ad bd 90 09 c5 3d
       0.04421286 -0.04368991 -0.0846032 0.096209645
000390 81 22 8a bd 06 7d 4d ba 5c b7 76 3d 03 7f db bd
       -0.06744862 -0.00078387593 0.06023346 -0.10717585
0003a0 af 6f 97 bd 28 15 d6 3e 14 28 2f 3e 08 c9 04 be
       -0.07394349 0.41813016 0.17105132 -0.12967312
0003b0 c2 18 f2 3b 90 ba ef bc 2e 3d aa bd 7a 31 4a 3d
       0.0073882053 -0.029263765 -0.0831245 0.04936359
0003c0 0e f8 b3 bd a8 32 ad 3d f8 b1 3e bd 2d 33 6e bd
       -0.08787547 0.084569275 -0.046556443 -0.058154274
0003d0 88 5e d9 bc 72 2e 8f bd 8d ff 31 3d 7c a9 e6 3c
       -0.026534334 -0.069912806 0.043456603 0.028156988
0003e0 5b 75 2c 3e 66 e3 f5 be d4 20 59 3e bb ea 8b bd
       0.16841643 -0.48025054 0.21203929 -0.06831881
0003f0 48 e1 c0 bd 16 b3 d0 3d 2f e9 62 be de de b2 3d
       -0.09417969 0.10190408 -0.22159265 0.08733915

net.0.conv.bias f4 [16]
000000 c6 47 44 3e 93 f8 08 be be 30 5c 3e b7 8c 27 bd
       0.19168004 -0.13376074 0.21502969 -0.04090568
000010 ff 7f 8e be 97 11 c2 be d3 e6 9c be 38 22 49 bd
       -0.27832028 -0.37904045 -0.30644855 -0.0491049
000020 e5 75 76 3e 94 08 ca 3e e3 df 57 3e 1f cc 7f 3e
       0.2406841 0.3945967 0.210815 0.2498021
000030 c5 42 c0 3d 27 2e af 3e 8f 69 35 3d 41 65 c4 3c
       0.09387735 0.342149 0.04429012 0.023974063

net.0.batch_norm.weight f4 [16]
000000 da 4c 3e 3f f5 38 59 3f 77 d8 62 3f af 38 90 3f
       0.74336016 0.84852535 0.8861155 1.1267298
000010 b5 fa a7 3f b1 3a 55 3f 25 da 7a 3f 0e e1 45 3f
       1.3123385 0.8329268 0.9798911 0.7729653
000020 e4 68 3c 3f f5 e6 78 3f 96 c4 91 3f cc 47 51 3f
       0.7359755 0.9722741 1.1388118 0.8175018
000030 48 98 49 3f e7 88 83 3f 2e 65 a8 3f 89 16 25 3f
       0.7874799 1.0276154 1.3155878 0.6448751

net.0.batch_norm.bias f4 [16]
000000 66 51 cd bb 79 d4 dc 3e 49 99 11 bf da fc 7b bf
       -0.006265807 0.43130854 -0.5687452 -0.98432696
000010 1e 65 4e bf 0e 3c bf 3d f7 37 7d 3d b0 66 1d be
       -0.8062304 0.093376264 0.06182095 -0.15371203
000020 83 ac 20 3e c2 37 36 be ed fe f3 be 4d c4 3a bc
       0.15690808 -0.17794707 -0.4765543 -0.011399341
000030 f2 59 a3 be 03 ee 22 bf 5a 01 36 bf b8 f4 73 be
       -0.3190456 -0.6364443 -0.7109581 -0.23823822

net.0.batch_norm.running_mean f4 [16]
000000 90 77 41 3e c2 35 2f bf 42 b2 16 3f a0 a1 c3 3e
       0.18893266 -0.684414 0.5886575 0.38209248
000010 03 09 58 3e 52 51 27 bf b6 d3 93 3d c1 5f 1d bd
       0.21097188 -0.6535846 0.07218115 -0.038421396
000020 35 99 56 bf 51 f1 85 3e 0b c5 2f 3f 63 be 7b 3e
       -0.83827525 0.26160672 0.6866004 0.24584346
000030 58 81 1c 3e 1e 2d 35 3f 8c d5 29 3f 54 a0 a1 3c
       0.15283716 0.7077197 0.6634147 0.01972977

net.0.batch_norm.running_var f4 [16]
000000 86 c3 0e 3f a7 96 a0 3f 04 00 3f 3f 76 ef 8e 3f
       0.55767095 1.2545975 0.746094 1.1166828
000010 3f 6e 99 3f 4b 4b 04 3f ac 11 b8 3f 9f f7 ce 3e
       1.198677 0.5167739 1.4380393 0.40423295
000020 58 ee 2d 40 d1 fc 31 3f 4b ce 89 3f 1a c0 a9 3e
       2.7176723 0.6952639 1.0766081 0.33154374
000030 69 47 41 3f ed 2c 54 3f 4f 8a d0 3f 5f d4 cf 3e
       0.7549959 0.8288105 1.6292208 0.40591714

net.1.conv.weight f4 [32, 16, 4, 4]
000000 03 8a a3 3c 37 e5 05 3d 1b 45 0a bd 1a 1d 47 be
       0.01996327 0.0326893 -0.03375731 -0.19444695
000010 a0 ce 97 bd 45 2f 36 3d d9 5c c5 bd 62 ac f8 bc
       -0.074124575 0.044478673 -0.0963685 -0.030355636
000020 8d 74 ba bb 61 7e 77 3d ee 2e de bc b4 1c 39 3e
       -0.0056901635 0.06042326 -0.027121987 0.18077356
000030 85 ac f3 b9 bb 04 d2 3c 87 26 4d 3c 58 77 c7 3d
       -0.0004647711 0.025637021 0.012521393 0.0973956
000040 89 0e f2 3c 59 98 d1 bd 9c 43 45 be b5 3b 0e 3e
       0.029547947 -0.10234136 -0.19264072 0.13889964
000050 a1 4e cf 3d 9d 6a 54 3c 9c f7 e2 3d a2 ad d0 bb
       0.10122419 0.012964872 0.11082384 -0.006368355
000060 f1 8b 87 3d db d7 33 3e 8f cd 7c 3d 0f 21 f0 3d
       0.066184886 0.17562811 0.061719473 0.117250554
000070 58 c9 fb bd e4 db 26 3d 44 17 98 3b 5b 0d 29 3e
       -0.12294263 0.040737048 0.0046414454 0.16509001
000080 19 92 87 be 9c 75 9c 3c 00 a9 6a 3e 8c 61 b5 be
       -0.2647865 0.01909905 0.22916031 -0.35425985
000090 48 94 b4 bc 04 9f da bd a8 ea 16 bd 70 8d 95 3d
       -0.022043362 -0.10674861 -0.03684488 0.07302368
0000a0 f0 4a 44 3e 73 f0 33 bb 58 70 2b bd d5 be 1c be
       0.19169211 -0.0027456551 -0.041855186 -0.15307172
0000b0 8f b2 87 bd 05 7a 73 3b 36 1e 05 be 5b 0e ee bd
       -0.06625854 0.0037151587 -0.12999806 -0.11623832
0000c0 7f a3 39 be 46 72 23 bd 59 47 31 bd 12 ff 68 bb
       -0.18128775 -0.0399039 -0.043280933 -0.0035552424
0000d0 0d d2 91 3d 2b 4a f1 3c db 45 c5 bd d2 13 15 be
       0.07120142 0.029454311 -0.096324645 -0.14558342
0000e0 90 51 de bc ea db 8a 3d 17 f2 c6 3d 6a 53 d3 3d
       -0.027138501 0.067802265 0.09714144 0.10318644
0000f0 4b 9d 84 3d 44 c1 e0 3d 6a a1 bb bb 15 ed e2 bb
       0.06475314 0.109743625 -0.005726029 -0.006925235
000100 1b 98 4f 3e 8f 76 ac bd 00 c5 0d be fb f4 3a bd
       0.20272867 -0.08421051 -0.13844681 -0.045643788
000110 da 3c a6 bd 0e bf 41 3d c4 51 8d 3d a0 24 ee 3c
       -0.08117075 0.047301345 0.06900361 0.029070199
000120 e3 72 c6 bd ea 9b 24 bd 20 5e be 3d f6 4b 53 bd
       -0.09689882 -0.040187754 0.09295297 -0.051586114
000130 40 e9 a2 bd ed 7a 29 3e 15 70 0a bd e5 44 34 be
       -0.07954645 0.16550799 -0.033798296 -0.17604406
000140 ad b9 09 bc e3 63 85 be 26 7d b3 3b 9a 28 83 3d
       -0.008406085 -0.2605277 0.0054775653 0.064042285
000150 ec eb ad 3b 9f 78 85 3b 58 fc bd 3c ed 68 0e 3d
       0.005307665 0.004073217 0.023191616 0.034768034
000160 6b 93 77 3d b5 4b 0a 3d cf 11 26 3e 22 21 e2 3d
       0.060443323 0.033763606 0.16217731 0.11041476
000170 38 15 24 3d d0 0a 89 bd b3 ab db bd 01 d7 bf bd
       0.0400593 -0.066915154 -0.107261084 -0.093671806
000180 a7 16 f7 3d eb a4 20 bc 0a 46 dd bd e2 0b 83 3e
       0.120648675 -0.0098049445 -0.108043745 0.25595003
000190 b4 df 9a bb 20 d5 c5 3c a4 94 1f 3e 9b 57 12 3e
       -0.0047263745 0.024149477 0.15584046 0.14291231
0001a0 a0 2e 06 3e 79 ab 08 3d 62 fc c2 b9 62 bd b3 bd
       0.13103724 0.033366654 -0.00037190603 -0.08776356
0001b0 fd 39 0a bc d6 b6 c3 3c f9 60 d4 3c 9d 8f be 3d
       -0.008436677 0.023890894 0.025925146 0.09304736
0001c0 36 0b 85 ba 55 e9 c2 3d 4d 8b e1 bd e3 81 fa 3b
       -0.0010150436 0.09517161 -0.11012898 0.0076448782
0001d0 4a dd 14 3c fe 02 99 3d 29 5c 74 37 8f d3 bd 3d
       0.009085963 0.07471274 1.4564991e-05 0.09268867
0001e0 19 3f 20 3d 2e 62 fd bb ef c1 43 be ca 03 7d 3e
       0.039122675 -0.007732651 -0.19116949 0.24708477
0001f0 c9 0e 64 bd 06 93 19 3d 5f 6c b9 bb a4 ed 63 3e
       -0.055678163 0.037493728 -0.005658671 0.22258621
000200 06 06 0d 3e 5e 04 8c bd 97 b2 bb bd d1 20 c3 3b
       0.13771829 -0.068367705 -0.09164923 0.0059548398
000210 ae 81 4c bc d9 5f 2b 3d 7a 2f 4d 3e 91 48 51 bd
       -0.01248209 0.041839454 0.20037642 -0.051094595
000220 9d 8a d5 bc 29 e2 0f 3e 93 0d 8b bc 45 48 81 be
       -0.026067073 0.14051117 -0.016974246 -0.2525045
000230 e4 18 74 3c 4c ef 43 3d 80 d0 a9 bd 50 03 4c 3e
       0.0148985125 0.047835633 -0.08291721 0.19923139
000240 c7 44 bc bd 03 16 42 3a b4 3d 2c be c7 07 ef bd
       -0.09192806 0.00074037927 -0.16820413 -0.11671405
000250 ec 00 fa bd bd 4e a5 3d d7 31 b4 bd 83 38 c7 bd
       -0.12207207 0.08071659 -0.08798569 -0.09727576
000260 17 6d aa 3c 3d 68 09 bc 6d 05 6d 3d ea 3a b8 bd
       0.020803971 -0.008386669 0.057866503 -0.08995612
000270 c4 b6 e2 bb 04 e6 fd bc 24 ec b8 bc 24 bd 37 bd
       -0.00691876 -0.030993469 -0.022573538 -0.044858113
000280 ec 62 c9 bd 9b a9 0c be 7f d5 ca bd 06 dc a8 3e
       -0.09833321 -0.13736574 -0.099040024 0.32980365
000290 bf ad 77 3d 36 62 6d bd fc f3 78 bd a1 9e 17 bc
       0.06046843 -0.05795499 -0.060779557 -0.009254129
0002a0 03 bd 22 3e 91 0d 52 3e 5f 98 05 be 9f 7f b2 3b
       0.15892415 0.20512988 -0.13046406 0.0054473425
0002b0 04 81 0b 3d 86 4b 06 bb 8e 1f 07 3d 0b 69 33 bb
       0.034058586 -0.0020491793 0.032989077 -0.0027375843
0002c0 52 f4 a4 3d 52 3d 05 3e 14 8c ba bc 93 6c 3f be
       0.08054413 0.13011673 -0.022771873 -0.18693762
0002d0 09 87 47 bc ec be 18 bc 63 2c 13 3d da 4c 7a be
       -0.012178191 -0.009322863 0.035931002 -0.24443379
0002e0 75 5f 47 bc fa 3a 44 3d e8 cf 13 bd 4d 52 3d be
       -0.012168755 0.047907807 -0.036086947 -0.18488427
0002f0 cd bf 79 bc 1f bb df 3d 99 b3 e4 3b 47 32 83 3d
       -0.015243483 0.109243624 0.0069794175 0.06406074
000300 7a c9 80 bd 9e 54 f0 bd 0e c5 b6 3b 2a 6d 45 3d
       -0.062884286 -0.117348894 0.00557769 0.04819981
000310 58 9f bc bd f7 a8 b4 bd 6f 78 f9 bd 73 45 91 3d
       -0.0921008 -0.0882129 -0.12181174 0.070933245
000320 94 9f 85 3d 26 6c 1f bd 01 65 92 3d c9 d8 a1 bd
       0.06524578 -0.038921498 0.07148171 -0.079026766
000330 e3 bd e7 bc 1a c6 42 bb 3d 36 33 3d f0 fc fa 3d
       -0.028288787 -0.0029720129 0.043752898 0.12255275
000340 30 8a a9 3d 1b 74 1f be ef ff c0 bd 7a 82 9a 3d
       0.0827831 -0.15571634 -0.094238155 0.07544418
000350 f4 21 04 3e 41 60 0f 3e 81 1e 53 3d 87 68 03 be
       0.12903577 0.14001562 0.051542763 -0.12832843
000360 da 38 60 bb 57 33 d8 3b 4d 23 83 3e fe 46 1b 3e
       -0.0034213574 0.006597917 0.2561287 0.151638
000370 90 d9 08 3b 5f 9d 10 bd 41 c7 b5 3d a3 ec 47 3e
       0.002088163 -0.03530633 0.08875895 0.19523863
000380 4f bd db bd e5 2c c1 bc 3b e7 61 be ea 27 27 3b
       -0.10729467 -0.023580978 -0.22060864 0.0025505968
000390 77 e6 89 3d f2 d6 cd 3d a8 48 53 3e 55 f6 85 3d
       0.06733411 0.10050763 0.20633185 0.06541125
0003a0 88 35 10 3e 54 94 20 3e c7 ee 63 3e 91 8d 45 bd
       0.1408292 0.15681583 0.22259055 -0.04823071
0003b0 70 16 a9 3c be d1 66 bc fd c0 56 3e 93 b2 05 be
       0.020640582 -0.014088092 0.20972057 -0.13056402
0003c0 76 9c 9e 3d d8 6b 37 3d 8f b6 de bd b3 c3 53 3d
       0.07744686 0.044780582 -0.10874664 0.051700305
0003d0 bb ed 82 3d aa d3 11 3d 46 f6 10 3c fe 30 0f be
       0.06393 0.03560225 0.008847779 -0.13983533
0003e0 69 a5 cf bb e7 dd ac bc da ea 0e 3e a5 d8 d6 3c
       -0.006336857 -0.021101905 0.13956776 0.026226351
0003f0 d8 d4 37 3e 69 95 29 be 4d 3f 7c bd b9 09 dc 3c
       0.17952287 -0.16560902 -0.061583806 0.026860105

net.1.conv.bias f4 [32]
000000 a5 d2 83 3d 98 d5 87 3c 5e a6 8e bd f8 9f c1 bd
       0.06436662 0.016581342 -0.06965326 -0.0945434
000010 84 14 0c be e1 68 34 bd 2b c3 13 3e 82 87 9f 3d
       -0.13679701 -0.044045333 0.1442992 0.07789518
000020 bb 52 a2 bd c6 f5 f1 3d 4f 05 10 bd a0 2a f7 3c
       -0.07925936 0.11814456 -0.035161313 0.030171692
000030 ac 2f 86 3d 5d 19 6c bd a4 d8 d0 bc 84 53 d9 bd
       0.065520614 -0.057641376 -0.025493927 -0.106116325
000040 e0 45 9c bc be a4 7a 3c c9 7a 86 3c cc f3 99 3c
       -0.019076288 0.015298067 0.01641597 0.01879301
000050 19 7b 0e 3d 35 ff 7e bd 0a 2b b3 bd 30 e5 d1 bb
       0.034785364 -0.062255103 -0.087484434 -0.006405495
000060 51 c3 48 be aa 27 f2 bd a5 0e 11 bd 24 d5 18 be
       -0.19605757 -0.118239716 -0.035414357 -0.14925057
000070 21 7c dd 3c e9 11 26 bd e7 f8 22 bd 96 1f 58 3d
       0.027036728 -0.040544424 -0.039788153 0.052764498

net.1.batch_norm.weight f4 [32]
000000 0b 61 13 40 58 f4 fe 3f 20 40 02 40 13 f0 f9 3f
       2.302798 1.9918318 2.0351639 1.952639
000010 ff f9 04 40 27 1c 09 40 64 5e 04 40 29 cc ec 3f
       2.0777586 2.1423433 2.0682611 1.8499805
000020 a8 18 03 40 e5 0a 07 40 c8 41 fd 3f ec 75 f5 3f
       2.04838 2.11004 1.97857 1.9176612
000030 1f e5 0d 40 36 30 fc 3f 18 a9 f9 3f 22 03 f9 3f
       2.2171094 1.9702213 1.9504728 1.9454081
000040 38 a6 18 40 9d 18 01 40 15 82 f9 3f 38 0c 08 40
       2.3851452 2.0171273 1.9492823 2.1257458
000050 35 34 01 40 65 06 0c 40 34 1c ed 3f 8d 11 fe 3f
       2.0188115 2.1878903 1.8524232 1.9849106
000060 da 2c ef 3f d8 da 02 40 32 3c fc 3f af 3a 03 40
       1.8685563 2.0446072 1.970587 2.0504568
000070 dc 3b f9 3f 78 c9 07 40 2f 29 02 40 39 e6 f7 3f
       1.9471393 2.1216717 2.0337636 1.9367133

net.1.batch_norm.bias f4 [32]
000000 9f 0a 7d 3d 39 5c a8 bd bd 3f f4 3e 0d 64 f7 3e
       0.061777707 -0.08220715 0.47704878 0.4831852
000010 7b 2f ae be 78 6f 79 be a0 e6 12 bf f2 bd cb 3f
       -0.340206 -0.24358928 -0.57383156 1.5917342
000020 36 68 80 bc 84 6c 36 3f e0 1b c2 3d c6 04 13 3e
       -0.015674692 0.7125933 0.09477973 0.1435729
000030 2e 7b be be 15 9e 00 bc 14 0e eb 3e 2d 15 9a 3c
       -0.37203354 -0.00785019 0.45909178 0.018808926
000040 54 5f 52 3e b5 6d 22 3e 42 f4 d0 be b2 37 21 3e
       0.20544177 0.15862162 -0.40811354 0.15743902
000050 24 d1 c1 bd 79 27 96 bd b3 49 87 3d e3 b8 5f 3e
       -0.094637185 -0.073317476 0.06605854 0.21847872
000060 59 1d d0 3d ef 88 45 bf 62 a7 3e 3d e0 04 f7 be
       0.101618476 -0.7716207 0.046546347 -0.48245907
000070 07 72 45 bd 20 6a 4b 3e 0f e0 cb 3e b8 d4 db be
       -0.048204448 0.19864702 0.3981938 -0.4293573

net.1.batch_norm.running_mean f4 [32]
000000 61 5e 0d 3f 53 60 df 3e 6b 2d e3 bc 54 b5 44 3d
       0.55222136 0.43628177 -0.027731618 0.04802449
000010 e4 d8 1d 3f 66 db b3 be 2d 7d 84 3e 79 08 87 3e
       0.61659074 -0.35128325 0.25876752 0.26373652
000020 33 20 2b 3f 55 aa f8 3e c3 42 45 3e ca e3 bf 3e
       0.6684601 0.48567453 0.19263749 0.37478477
000030 ca 90 de 3e 4a b6 c2 bd da da 9d 3e 75 c8 ca 3d
       0.4346984 -0.09507425 0.30831033 0.099015154
000040 4d 73 01 bd a8 fb 37 3f 7c b7 52 be 65 92 44 3e
       -0.0316041 0.7186837 -0.20577806 0.1919647
000050 18 25 bb 3e 0b 86 95 be f8 c6 d6 bd 2c 15 3e 3f
       0.36551738 -0.2920383 -0.10487169 0.74251056
000060 31 f7 e0 be 7e ae 31 3f 73 db 3b be 89 4a 6c bd
       -0.43938592 0.6940688 -0.18345432 -0.05768827
000070 c1 5a 75 be 40 88 49 bd a9 a9 69 bd 34 46 8b 3e
       -0.23960401 -0.049202204 -0.057046566 0.27201998

net.1.batch_norm.running_var f4 [32]
000000 11 24 1b 3e 72 fe 38 3e c2 e8 b3 3d d3 4b 0d 3e
       0.15150477 0.18065813 0.087846294 0.13798456
000010 c7 4a 51 3e 14 b5 66 3e 4f 37 10 3e 90 7b ef 3d
       0.20438682 0.22530013 0.14083599 0.116934896
000020 cd 24 57 3e 8a 8b f5 3d b4 9d 13 3e aa d7 13 3e
       0.21010132 0.119895056 0.14415628 0.14437738
000030 90 e9 68 3e f3 86 04 3e b1 77 02 3e c5 1d 1e 3e
       0.22745347 0.12942104 0.12740971 0.15441044
000040 17 8e 6c 3e 1a e9 2a 3e db 55 49 3e 33 60 7a 3e
       0.23101078 0.16690484 0.19661658 0.2445076
000050 45 05 38 3e f6 d5 08 3e 0a 1e e5 3d 12 d6 79 3e
       0.1797076 0.1336287 0.1118737 0.24398068
000060 31 e5 97 3e 4c d6 80 3e 19 f6 2e 3e b8 08 4d 3e
       0.29667047 0.25163496 0.17086066 0.20022857
000070 75 bc 77 3e f1 55 cd 3d 47 8f e5 3d 2a 42 2f 3e
       0.24192984 0.10026158 0.112089686 0.17115083

net.2.weight f4 [1, 32, 4, 4]
000000 94 3b 41 3e 1d 2a 0e 3f 79 ae 10 3f 5d 44 07 bf
       0.18870384 0.5553301 0.56516224 -0.5283869
000010 57 fb 29 be 88 5b fa 3d b2 e4 33 3d 76 5c 95 bf
       -0.16599785 0.122244895 0.043919273 -1.1668842
000020 be b1 c0 be 15 3b 03 be 95 64 fc 3d 78 ee ba bf
       -0.37635607 -0.12815507 0.12323872 -1.4604025
000030 1f 52 81 bf 6d 48 0f be b7 11 34 3e e5 4c 90 bf
       -1.0103186 -0.13992472 0.17584883 -1.1273466
000040 e9 e3 30 bf 38 25 6c be 08 d7 22 bf d2 53 dd bd
       -0.69097763 -0.23061073 -0.6360936 -0.10807003
000050 2f 44 fd be 6f 13 b4 bc 74 01 f6 3d 19 fc 7c be
       -0.49466082 -0.021981923 0.12011996 -0.24705543
000060 e6 4f 3c bf 15 eb 8d 3e 34 e9 b1 bd 28 93 2f bf
       -0.73559415 0.27718416 -0.08687058 -0.6858392
000070 db 7b df be 68 8d f4 3f 56 a5 8b 3f 04 39 90 be
       -0.43649182 1.9105654 1.0909832 -0.281685
000080 09 6a b9 be 25 ed d2 3d 74 de aa ba f1 c8 45 bf
       -0.3621371 0.10299138 -0.0013036267 -0.7725974
000090 e2 5d 37 be 40 31 8d 3e 86 5d 1d 3e 86 ba 27 be
       -0.17906907 0.27576637 0.15367708 -0.16379747
0000a0 c6 b8 81 be bf 3c 0e 3e 50 50 e5 3d ac b2 09 be
       -0.25336283 0.1389036 0.11196959 -0.13447064
0000b0 82 9d 27 3f 7c e4 1d 3f a2 1e 39 3f 4e 0d 45 3f
       0.6547471 0.61676764 0.72312367 0.76973426
0000c0 c3 0a 0a 3f 88 f5 fc bd 92 55 49 3d ab ed a7 bf
       0.5392267 -0.12351519 0.04915387 -1.3119406
0000d0 d4 69 19 3f 59 05 b7 3d 96 66 82 bb 57 9f 36 ba
       0.59927106 0.08936567 -0.0039795144 -0.00069664925
0000e0 88 bd 10 3f a1 ed 58 3e 00 70 1e be 74 55 a8 bf
       0.565392 0.21184398 -0.15472412 -1.3151078
0000f0 02 e6 db 3e 52 51 2e 3e be 71 f9 be 5e 73 90 3e
       0.4294892 0.17023209 -0.4871959 0.28213018
000100 9f 00 4d bc 56 b4 c2 3d e3 32 d3 3c 75 c9 b7 3f
       -0.012512355 0.095070526 0.0257811 1.4358355
000110 11 be c0 be b2 be cb bc a6 b0 e5 3d c0 95 ad 3e
       -0.3764501 -0.024871204 0.11215334 0.33903313
000120 ea 36 a6 3d 32 b8 80 3e 97 fd f0 3e cb 5e 4b 3f
       0.08115943 0.2514053 0.47068474 0.7944152
000130 63 4e 43 bf 98 43 2c bf c5 de 61 bf 30 54 38 bf
       -0.76291484 -0.6729064 -0.88230544 -0.7200346
000140 3d 05 cb bd cb ef 96 3f 62 f5 13 3f 6e 02 52 3f
       -0.099131085 1.1791929 0.577963 0.8203496
000150 56 55 d7 be 5a 29 5e be e0 5d 0b be d1 74 94 3f
       -0.42057294 -0.21695462 -0.13610029 1.159815
000160 15 ca cb be 37 bd 8a 3d b5 fd 13 bd 27 59 04 bf
       -0.39802614 0.06774371 -0.036130626 -0.51698536
000170 bf 5e 71 bf 1a 4a e8 be 20 ba 14 bf f0 15 33 bf
       -0.94285196 -0.45369035 -0.58096504 -0.6995535
000180 24 f9 36 3f 96 f8 4f bc 36 88 9c 3d 6f f8 fb be
       0.7147391 -0.012693545 0.07643168 -0.49212977
000190 fc 05 06 3f 74 46 a8 be 2c a2 13 be 7d e1 64 bf
       0.5235288 -0.3286625 -0.14417332 -0.8940657
0001a0 3c 07 fb 3e 75 c3 5d be 79 ce 33 be 7e d3 f1 be
       0.49028957 -0.21656592 -0.17559232 -0.47231668
0001b0 8f dd 50 3e ce c8 d7 bf 40 8c a6 bf 6e 32 7e bf
       0.20397018 -1.6858156 -1.3011551 -0.992957
0001c0 e3 d9 28 be 65 12 49 be b2 35 a7 bd 03 e7 04 3f
       -0.16489367 -0.19635923 -0.081645384 0.51914996
0001d0 6d 15 c0 bc 11 56 b1 bd 89 97 8f 3c 5b 1c 07 3f
       -0.023447717 -0.08658994 0.017528312 0.5277764
0001e0 98 48 83 bd 81 4a 47 be 98 71 15 be 97 14 08 3f
       -0.064103305 -0.19462015 -0.14594114 0.5315642
0001f0 db 36 cc be 15 ee fb be de 78 6d bf 5e 6a 01 3f
       -0.398856 -0.4920508 -0.92762554 0.5055293
000200 d0 3a f7 be 2f 8a 3b bf 01 92 4f bf bd c8 55 bf
       -0.48287058 -0.73257726 -0.8108216 -0.8350943
000210 a5 69 6f 3f d7 8a 82 3d 78 4c 1c bd 85 fc 32 3e
       0.93520576 0.06374138 -0.038158864 0.17479141
000220 9e f0 82 3f 81 c5 1b 39 51 2e 67 be 0b a9 7f be
       1.022968 0.00014855528 -0.22576262 -0.24966829
000230 d9 a0 85 3f 7e 11 aa 3b 83 53 90 be 0a 31 13 bd
       1.0439712 0.0051900735 -0.28188714 -0.03593544
000240 d5 3e 92 3e e3 32 24 3e 31 d9 bb 3e 3b 06 4d 3f
       0.28563562 0.16035037 0.3668914 0.8008763
000250 ee 35 a3 3e 75 9c 63 3e 1a 93 b7 3e f8 08 e7 3e
       0.31877083 0.22227652 0.35854417 0.4512403
000260 33 bf ae 3e 46 83 40 3e 3c ff 32 3d 51 70 13 3f
       0.34130248 0.18800077 0.04370044 0.57593256
000270 76 31 18 c0 a6 57 dd bf 93 c4 8f bf 04 c0 89 be
       -2.3780189 -1.7292373 -1.1231865 -0.2690431
000280 d4 dc c8 3e a7 bb 9d bf b2 8e bb bd c0 a4 c5 be
       0.39230978 -1.2322892 -0.09158076 -0.38602257
000290 f4 c9 bf 3e 9b f9 50 3c e1 67 7f 3e 71 4c e1 3e
       0.37458766 0.012754823 0.2494197 0.44003633
0002a0 48 68 29 3f 2b 93 42 3e d2 96 f0 3d 69 3a 97 3e
       0.66174746 0.19001453 0.11747517 0.2953675
0002b0 7f 01 2b 3f 87 fa 6f bf bc 48 45 bf 1f 9a 63 bf
       0.6679916 -0.9374165 -0.7706411 -0.88907045
0002c0 93 56 81 3e 58 6b 5c 3e 69 24 d3 3e a3 77 d2 bf
       0.25261363 0.21525323 0.41238716 -1.644276
0002d0 d1 e7 06 3f 55 6a a2 3e 69 b9 1f 3e e7 88 20 bf
       0.52697474 0.3172175 0.15598072 -0.62708896
0002e0 5b bf 1f 3f c2 d2 28 3f fd 7f 46 3e 60 e0 8c bf
       0.6240136 0.6594659 0.19384761 -1.1005974
0002f0 b2 3a e2 3e 53 7f 79 bf b0 b2 d7 bf fd d5 4c bf
       0.44185406 -0.97459906 -1.6851406 -0.8001402
000300 27 b9 19 bf d1 b9 bd 3d 01 87 31 bd 32 4b ab 3e
       -0.60048145 0.09263957 -0.04334164 0.33455807
000310 70 f9 2b bf d4 72 eb bd 1d 6c 28 bb 18 bf 98 3f
       -0.67177486 -0.11496511 -0.0025699206 1.1933317
000320 16 f3 14 bf 55 a1 3f 3d 4c 59 8c 3e 50 86 f7 3e
       -0.5818342 0.046784718 0.27411878 0.4834466
000330 03 4b 0c 3e c7 4b 25 40 b4 ce b5 3f 97 97 82 3f
       0.1370049 2.58275 1.4203706 1.0202512
000340 02 bf d4 3e f8 22 34 bf 61 97 29 bf 3f f5 ad 3e
       0.41551977 -0.7036586 -0.6624661 0.3397617
000350 5e 6f e6 3d cd 74 6d 3d b6 14 7f 3e bc e8 6b 3e
       0.1125171 0.057972718 0.24910244 0.23038
000360 5c cc 0e 3e 92 d2 9b be 10 4b 08 3c 79 07 82 3e
       0.13945144 -0.3043409 0.008318678 0.25396326
000370 ca 61 68 3f fe 49 f8 3e 06 16 5c 3f 81 f3 16 3f
       0.90774214 0.48493952 0.85971105 0.5896531
000380 f5 e1 d4 be ba 9e de 3e 92 4a ad 3e f0 a7 ab 3e
       -0.41578642 0.43480474 0.33845955 0.33526564
000390 0e 06 4e bf 99 fc d6 3e 4f 2a a7 3e cc fe f7 3e
       -0.8047799 0.41989592 0.32649466 0.48436582
0003a0 31 1e 51 bf 8c ef c6 3e f4 34 7c bd 93 63 d6 3c
       -0.81686693 0.38854635 -0.061573938 0.026170528
0003b0 ef e4 c7 bf 7a 33 01 3f d8 08 a1 3e d9 ab 22 3f
       -1.561674 0.5046917 0.3145206 0.6354347
0003c0 99 15 ba bf 73 91 81 3e 73 c4 04 3f cb 05 11 3f
       -1.4537841 0.2530628 0.5186226 0.56649464
0003d0 5b df 76 bf 83 83 91 3e 35 9a ea 3e 98 57 f1 3e
       -0.96434563 0.28420648 0.45820776 0.4713714
0003e0 47 94 a6 bf d2 ec f8 3d 80 4b 93 3e e7 da 36 3e
       -1.3014001 0.12154545 0.2876854 0.17856942
0003f0 c0 d6 92 bf 9c cd e3 3e 8b 79 be 3e 9d aa 1f 3f
       -1.1471786 0.44492805 0.37202105 0.6236971
